…
        "outputId": "96691bbb-8bc4-4d8c-e467-7f977f818390"
      },
      "outputs": [
        {
          "name": "stderr",
          "output_type": "stream",
          "text": [
            "Downloading: \"https://download.pytorch.org/models/resnet18-f37072fd.pth\" to /root/.cache/torch/hub/checkpoints/resnet18-f37072fd.pth\n",
            "100%|██████████| 44.7M/44.7M [00:00<00:00, 182MB/s]\n"
          ]
        },
        {
          "name": "stdout",
          "output_type": "stream",
          "text": [
            "CaptionModel(\n",
            "  (encoder): EncoderCNN(\n",
            "    (cnn): ResNet(\n",
            "      (conv1): Conv2d(3, 64, kernel_size=(7, 7), stride=(2, 2), padding=(3, 3), bias=False)\n",
            "      (bn1): BatchNorm2d(64, eps=1e-05, momentum=0.1, affine=True, track_running_stats=True)\n",
            "      (relu): ReLU(inplace=True)\n",
            "      (maxpool): MaxPool2d(kernel_size=3, stride=2, padding=1, dilation=1, ceil_mode=False)\n",
            "      (layer1): Sequential(\n",
            "        (0): BasicBlock(\n",
            "          (conv1): Conv2d(64, 64, kernel_size=(3, 3), stride=(1, 1), padding=(1, 1), bias=False)\n",
            "          (bn1): BatchNorm2d(64, eps=1e-05, momentum=0.1, affine=True, track_running_stats=True)\n",
            "          (relu): ReLU(inplace=True)\n",
            "          (conv2): Conv2d(64, 64, kernel_size=(3, 3), stride=(1, 1), padding=(1, 1), bias=False)\n",
            "          (bn2): BatchNorm2d(64, eps=1e-05, momentum=0.1, affine=True, track_running_stats=True)\n",
            "        )\n",
            "        (1): BasicBlock(\n",
            "          (conv1): Conv2d(64, 64, kernel_size=(3, 3), stride=(1, 1), padding=(1, 1), bias=False)\n",
            "          (bn1): BatchNorm2d(64, eps=1e-05, momentum=0.1, affine=True, track_running_stats=True)\n",
            "          (relu): ReLU(inplace=True)\n",
            "          (conv2): Conv2d(64, 64, kernel_size=(3, 3), stride=(1, 1), padding=(1, 1), bias=False)\n",
            "          (bn2): BatchNorm2d(64, eps=1e-05, momentum=0.1, affine=True, track_running_stats=True)\n",
            "        )\n",
            "      )\n",
            "      (layer2): Sequential(\n",
            "        (0): BasicBlock(\n",
            "          (conv1): Conv2d(64, 128, kernel_size=(3, 3), stride=(2, 2), padding=(1, 1), bias=False)\n",
            "          (bn1): BatchNorm2d(128, eps=1e-05, momentum=0.1, affine=True, track_running_stats=True)\n",
            "          (relu): ReLU(inplace=True)\n",
            "          (conv2): Conv2d(128, 128, kernel_size=(3, 3), stride=(1, 1), padding=(1, 1), bias=False)\n",
            "          (bn2): BatchNorm2d(128, eps=1e-05, momentum=0.1, affine=True, track_running_stats=True)\n",
            "          (downsample): Sequential(\n",
            "            (0): Conv2d(64, 128, kernel_size=(1, 1), stride=(2, 2), bias=False)\n",
            "            (1): BatchNorm2d(128, eps=1e-05, momentum=0.1, affine=True, track_running_stats=True)\n",
            "          )\n",
            "        )\n",
            "        (1): BasicBlock(\n",
            "          (conv1): Conv2d(128, 128, kernel_size=(3, 3), stride=(1, 1), padding=(1, 1), bias=False)\n",
            "          (bn1): BatchNorm2d(128, eps=1e-05, momentum=0.1, affine=True, track_running_stats=True)\n",
            "          (relu): ReLU(inplace=True)\n",
            "          (conv2): Conv2d(128, 128, kernel_size=(3, 3), stride=(1, 1), padding=(1, 1), bias=False)\n",
            "          (bn2): BatchNorm2d(128, eps=1e-05, momentum=0.1, affine=True, track_running_stats=True)\n",
            "        )\n",
            "      )\n",
            "      (layer3): Sequential(\n",
            "        (0): BasicBlock(\n",
            "          (conv1): Conv2d(128, 256, kernel_size=(3, 3), stride=(2, 2), padding=(1, 1), bias=False)\n",
            "          (bn1): BatchNorm2d(256, eps=1e-05, momentum=0.1, affine=True, track_running_stats=True)\n",
            "          (relu): ReLU(inplace=True)\n",
            "          (conv2): Conv2d(256, 256, kernel_size=(3, 3), stride=(1, 1), padding=(1, 1), bias=False)\n",
            "          (bn2): BatchNorm2d(256, eps=1e-05, momentum=0.1, affine=True, track_running_stats=True)\n",
            "          (downsample): Sequential(\n",
            "            (0): Conv2d(128, 256, kernel_size=(1, 1), stride=(2, 2), bias=False)\n",
            "            (1): BatchNorm2d(256, eps=1e-05, momentum=0.1, affine=True, track_running_stats=True)\n",
            "          )\n",
            "        )\n",
            "        (1): BasicBlock(\n",
            "          (conv1): Conv2d(256, 256, kernel_size=(3, 3), stride=(1, 1), padding=(1, 1), bias=False)\n",
            "          (bn1): BatchNorm2d(256, eps=1e-05, momentum=0.1, affine=True, track_running_stats=True)\n",
            "          (relu): ReLU(inplace=True)\n",
            "          (conv2): Conv2d(256, 256, kernel_size=(3, 3), stride=(1, 1), padding=(1, 1), bias=False)\n",
            "          (bn2): BatchNorm2d(256, eps=1e-05, momentum=0.1, affine=True, track_running_stats=True)\n",
            "        )\n",
            "      )\n",
            "      (layer4): Sequential(\n",
            "        (0): BasicBlock(\n",
            "          (conv1): Conv2d(256, 512, kernel_size=(3, 3), stride=(2, 2), padding=(1, 1), bias=False)\n",
            "          (bn1): BatchNorm2d(512, eps=1e-05, momentum=0.1, affine=True, track_running_stats=True)\n",
            "          (relu): ReLU(inplace=True)\n",
            "          (conv2): Conv2d(512, 512, kernel_size=(3, 3), stride=(1, 1), padding=(1, 1), bias=False)\n",
            "          (bn2): BatchNorm2d(512, eps=1e-05, momentum=0.1, affine=True, track_running_stats=True)\n",
            "          (downsample): Sequential(\n",
            "            (0): Conv2d(256, 512, kernel_size=(1, 1), stride=(2, 2), bias=False)\n",
            "            (1): BatchNorm2d(512, eps=1e-05, momentum=0.1, affine=True, track_running_stats=True)\n",
            "          )\n",
            "        )\n",
            "        (1): BasicBlock(\n",
            "          (conv1): Conv2d(512, 512, kernel_size=(3, 3), stride=(1, 1), padding=(1, 1), bias=False)\n",
            "          (bn1): BatchNorm2d(512, eps=1e-05, momentum=0.1, affine=True, track_running_stats=True)\n",
            "          (relu): ReLU(inplace=True)\n",
            "          (conv2): Conv2d(512, 512, kernel_size=(3, 3), stride=(1, 1), padding=(1, 1), bias=False)\n",
            "          (bn2): BatchNorm2d(512, eps=1e-05, momentum=0.1, affine=True, track_running_stats=True)\n",
            "        )\n",
            "      )\n",
            "      (avgpool): AdaptiveAvgPool2d(output_size=(1, 1))\n",
            "      (fc): Identity()\n",
            "    )\n",
            "    (projection): Sequential(\n",
            "      (0): Linear(in_features=512, out_features=256, bias=True)\n",
            "      (1): BatchNorm1d(256, eps=1e-05, momentum=0.1, affine=True, track_running_stats=True)\n",
            "      (2): ReLU(inplace=True)\n",
            "      (3): Dropout(p=0.5, inplace=False)\n",
            "    )\n",
            "  )\n",
            "  (feature2hidden): Linear(in_features=256, out_features=512, bias=True)\n",
            "  (decoder): DecoderRNN(\n",
            "    (embedding): Embedding(2986, 512)\n",
            "    (rnn): LSTM(512, 512, batch_first=True)\n",
            "    (fc): Linear(in_features=512, out_features=2986, bias=True)\n",
            "    (dropout): Dropout(p=0.5, inplace=False)\n",
            "  )\n",
            ")\n"
          ]
        }
      ],
      "source": [
        "# Create caption model\n",
        "model = CaptionModel(\n",
        "    embed_size=config['embed_size'],\n",
        "    hidden_size=config['hidden_size'],\n",
        "    vocab_size=config['vocab_size'],\n",
…
