…
          "text": [
            "Downloading: \"https://download.pytorch.org/models/mobilenet_v2-7ebf99e0.pth\" to /root/.cache/torch/hub/checkpoints/mobilenet_v2-7ebf99e0.pth\n",
            "100%|██████████| 13.6M/13.6M [00:00<00:00, 88.1MB/s]\n"
          ]
        },
        {
          "output_type": "stream",
          "name": "stdout",
          "text": [
            "CaptionModel(\n",
            "  (encoder): EncoderCNN(\n",
            "    (cnn): MobileNetV2(\n",
            "      (features): Sequential(\n",
            "        (0): Conv2dNormActivation(\n",
            "          (0): Conv2d(3, 32, kernel_size=(3, 3), stride=(2, 2), padding=(1, 1), bias=False)\n",
            "          (1): BatchNorm2d(32, eps=1e-05, momentum=0.1, affine=True, track_running_stats=True)\n",
            "          (2): ReLU6(inplace=True)\n",
            "        )\n",
            "        (1): InvertedResidual(\n",
            "          (conv): Sequential(\n",
            "            (0): Conv2dNormActivation(\n",
            "              (0): Conv2d(32, 32, kernel_size=(3, 3), stride=(1, 1), padding=(1, 1), groups=32, bias=False)\n",
            "              (1): BatchNorm2d(32, eps=1e-05, momentum=0.1, affine=True, track_running_stats=True)\n",
            "              (2): ReLU6(inplace=True)\n",
            "            )\n",
            "            (1): Conv2d(32, 16, kernel_size=(1, 1), stride=(1, 1), bias=False)\n",
            "            (2): BatchNorm2d(16, eps=1e-05, momentum=0.1, affine=True, track_running_stats=True)\n",
            "          )\n",
            "        )\n",
            "        (2): InvertedResidual(\n",
            "          (conv): Sequential(\n",
            "            (0): Conv2dNormActivation(\n",
            "              (0): Conv2d(16, 96, kernel_size=(1, 1), stride=(1, 1), bias=False)\n",
            "              (1): BatchNorm2d(96, eps=1e-05, momentum=0.1, affine=True, track_running_stats=True)\n",
            "              (2): ReLU6(inplace=True)\n",
            "            )\n",
            "            (1): Conv2dNormActivation(\n",
            "              (0): Conv2d(96, 96, kernel_size=(3, 3), stride=(2, 2), padding=(1, 1), groups=96, bias=False)\n",
            "              (1): BatchNorm2d(96, eps=1e-05, momentum=0.1, affine=True, track_running_stats=True)\n",
            "              (2): ReLU6(inplace=True)\n",
            "            )\n",
            "            (2): Conv2d(96, 24, kernel_size=(1, 1), stride=(1, 1), bias=False)\n",
            "            (3): BatchNorm2d(24, eps=1e-05, momentum=0.1, affine=True, track_running_stats=True)\n",
            "          )\n",
            "        )\n",
            "        (3): InvertedResidual(\n",
            "          (conv): Sequential(\n",
            "            (0): Conv2dNormActivation(\n",
            "              (0): Conv2d(24, 144, kernel_size=(1, 1), stride=(1, 1), bias=False)\n",
            "              (1): BatchNorm2d(144, eps=1e-05, momentum=0.1, affine=True, track_running_stats=True)\n",
            "              (2): ReLU6(inplace=True)\n",
            "            )\n",
            "            (1): Conv2dNormActivation(\n",
            "              (0): Conv2d(144, 144, kernel_size=(3, 3), stride=(1, 1), padding=(1, 1), groups=144, bias=False)\n",
            "              (1): BatchNorm2d(144, eps=1e-05, momentum=0.1, affine=True, track_running_stats=True)\n",
            "              (2): ReLU6(inplace=True)\n",
            "            )\n",
            "            (2): Conv2d(144, 24, kernel_size=(1, 1), stride=(1, 1), bias=False)\n",
            "            (3): BatchNorm2d(24, eps=1e-05, momentum=0.1, affine=True, track_running_stats=True)\n",
            "          )\n",
            "        )\n",
            "        (4): InvertedResidual(\n",
            "          (conv): Sequential(\n",
            "            (0): Conv2dNormActivation(\n",
            "              (0): Conv2d(24, 144, kernel_size=(1, 1), stride=(1, 1), bias=False)\n",
            "              (1): BatchNorm2d(144, eps=1e-05, momentum=0.1, affine=True, track_running_stats=True)\n",
            "              (2): ReLU6(inplace=True)\n",
            "            )\n",
            "            (1): Conv2dNormActivation(\n",
            "              (0): Conv2d(144, 144, kernel_size=(3, 3), stride=(2, 2), padding=(1, 1), groups=144, bias=False)\n",
            "              (1): BatchNorm2d(144, eps=1e-05, momentum=0.1, affine=True, track_running_stats=True)\n",
            "              (2): ReLU6(inplace=True)\n",
            "            )\n",
            "            (2): Conv2d(144, 32, kernel_size=(1, 1), stride=(1, 1), bias=False)\n",
            "            (3): BatchNorm2d(32, eps=1e-05, momentum=0.1, affine=True, track_running_stats=True)\n",
            "          )\n",
            "        )\n",
            "        (5): InvertedResidual(\n",
            "          (conv): Sequential(\n",
            "            (0): Conv2dNormActivation(\n",
            "              (0): Conv2d(32, 192, kernel_size=(1, 1), stride=(1, 1), bias=False)\n",
            "              (1): BatchNorm2d(192, eps=1e-05, momentum=0.1, affine=True, track_running_stats=True)\n",
            "              (2): ReLU6(inplace=True)\n",
            "            )\n",
            "            (1): Conv2dNormActivation(\n",
            "              (0): Conv2d(192, 192, kernel_size=(3, 3), stride=(1, 1), padding=(1, 1), groups=192, bias=False)\n",
            "              (1): BatchNorm2d(192, eps=1e-05, momentum=0.1, affine=True, track_running_stats=True)\n",
            "              (2): ReLU6(inplace=True)\n",
            "            )\n",
            "            (2): Conv2d(192, 32, kernel_size=(1, 1), stride=(1, 1), bias=False)\n",
            "            (3): BatchNorm2d(32, eps=1e-05, momentum=0.1, affine=True, track_running_stats=True)\n",
            "          )\n",
            "        )\n",
            "        (6): InvertedResidual(\n",
            "          (conv): Sequential(\n",
            "            (0): Conv2dNormActivation(\n",
            "              (0): Conv2d(32, 192, kernel_size=(1, 1), stride=(1, 1), bias=False)\n",
            "              (1): BatchNorm2d(192, eps=1e-05, momentum=0.1, affine=True, track_running_stats=True)\n",
            "              (2): ReLU6(inplace=True)\n",
            "            )\n",
            "            (1): Conv2dNormActivation(\n",
            "              (0): Conv2d(192, 192, kernel_size=(3, 3), stride=(1, 1), padding=(1, 1), groups=192, bias=False)\n",
            "              (1): BatchNorm2d(192, eps=1e-05, momentum=0.1, affine=True, track_running_stats=True)\n",
            "              (2): ReLU6(inplace=True)\n",
            "            )\n",
            "            (2): Conv2d(192, 32, kernel_size=(1, 1), stride=(1, 1), bias=False)\n",
            "            (3): BatchNorm2d(32, eps=1e-05, momentum=0.1, affine=True, track_running_stats=True)\n",
            "          )\n",
            "        )\n",
            "        (7): InvertedResidual(\n",
            "          (conv): Sequential(\n",
            "            (0): Conv2dNormActivation(\n",
            "              (0): Conv2d(32, 192, kernel_size=(1, 1), stride=(1, 1), bias=False)\n",
            "              (1): BatchNorm2d(192, eps=1e-05, momentum=0.1, affine=True, track_running_stats=True)\n",
            "              (2): ReLU6(inplace=True)\n",
            "            )\n",
            "            (1): Conv2dNormActivation(\n",
            "              (0): Conv2d(192, 192, kernel_size=(3, 3), stride=(2, 2), padding=(1, 1), groups=192, bias=False)\n",
            "              (1): BatchNorm2d(192, eps=1e-05, momentum=0.1, affine=True, track_running_stats=True)\n",
            "              (2): ReLU6(inplace=True)\n",
            "            )\n",
            "            (2): Conv2d(192, 64, kernel_size=(1, 1), stride=(1, 1), bias=False)\n",
            "            (3): BatchNorm2d(64, eps=1e-05, momentum=0.1, affine=True, track_running_stats=True)\n",
            "          )\n",
            "        )\n",
            "        (8): InvertedResidual(\n",
            "          (conv): Sequential(\n",
            "            (0): Conv2dNormActivation(\n",
            "              (0): Conv2d(64, 384, kernel_size=(1, 1), stride=(1, 1), bias=False)\n",
            "              (1): BatchNorm2d(384, eps=1e-05, momentum=0.1, affine=True, track_running_stats=True)\n",
            "              (2): ReLU6(inplace=True)\n",
            "            )\n",
            "            (1): Conv2dNormActivation(\n",
            "              (0): Conv2d(384, 384, kernel_size=(3, 3), stride=(1, 1), padding=(1, 1), groups=384, bias=False)\n",
            "              (1): BatchNorm2d(384, eps=1e-05, momentum=0.1, affine=True, track_running_stats=True)\n",
            "              (2): ReLU6(inplace=True)\n",
            "            )\n",
            "            (2): Conv2d(384, 64, kernel_size=(1, 1), stride=(1, 1), bias=False)\n",
            "            (3): BatchNorm2d(64, eps=1e-05, momentum=0.1, affine=True, track_running_stats=True)\n",
            "          )\n",
            "        )\n",
            "        (9): InvertedResidual(\n",
            "          (conv): Sequential(\n",
            "            (0): Conv2dNormActivation(\n",
            "              (0): Conv2d(64, 384, kernel_size=(1, 1), stride=(1, 1), bias=False)\n",
            "              (1): BatchNorm2d(384, eps=1e-05, momentum=0.1, affine=True, track_running_stats=True)\n",
            "              (2): ReLU6(inplace=True)\n",
            "            )\n",
            "            (1): Conv2dNormActivation(\n",
            "              (0): Conv2d(384, 384, kernel_size=(3, 3), stride=(1, 1), padding=(1, 1), groups=384, bias=False)\n",
            "              (1): BatchNorm2d(384, eps=1e-05, momentum=0.1, affine=True, track_running_stats=True)\n",
            "              (2): ReLU6(inplace=True)\n",
            "            )\n",
            "            (2): Conv2d(384, 64, kernel_size=(1, 1), stride=(1, 1), bias=False)\n",
            "            (3): BatchNorm2d(64, eps=1e-05, momentum=0.1, affine=True, track_running_stats=True)\n",
            "          )\n",
            "        )\n",
            "        (10): InvertedResidual(\n",
            "          (conv): Sequential(\n",
            "            (0): Conv2dNormActivation(\n",
            "              (0): Conv2d(64, 384, kernel_size=(1, 1), stride=(1, 1), bias=False)\n",
            "              (1): BatchNorm2d(384, eps=1e-05, momentum=0.1, affine=True, track_running_stats=True)\n",
            "              (2): ReLU6(inplace=True)\n",
            "            )\n",
            "            (1): Conv2dNormActivation(\n",
            "              (0): Conv2d(384, 384, kernel_size=(3, 3), stride=(1, 1), padding=(1, 1), groups=384, bias=False)\n",
            "              (1): BatchNorm2d(384, eps=1e-05, momentum=0.1, affine=True, track_running_stats=True)\n",
            "              (2): ReLU6(inplace=True)\n",
            "            )\n",
            "            (2): Conv2d(384, 64, kernel_size=(1, 1), stride=(1, 1), bias=False)\n",
            "            (3): BatchNorm2d(64, eps=1e-05, momentum=0.1, affine=True, track_running_stats=True)\n",
            "          )\n",
            "        )\n",
            "        (11): InvertedResidual(\n",
            "          (conv): Sequential(\n",
            "            (0): Conv2dNormActivation(\n",
            "              (0): Conv2d(64, 384, kernel_size=(1, 1), stride=(1, 1), bias=False)\n",
            "              (1): BatchNorm2d(384, eps=1e-05, momentum=0.1, affine=True, track_running_stats=True)\n",
            "              (2): ReLU6(inplace=True)\n",
            "            )\n",
            "            (1): Conv2dNormActivation(\n",
            "              (0): Conv2d(384, 384, kernel_size=(3, 3), stride=(1, 1), padding=(1, 1), groups=384, bias=False)\n",
            "              (1): BatchNorm2d(384, eps=1e-05, momentum=0.1, affine=True, track_running_stats=True)\n",
            "              (2): ReLU6(inplace=True)\n",
            "            )\n",
            "            (2): Conv2d(384, 96, kernel_size=(1, 1), stride=(1, 1), bias=False)\n",
            "            (3): BatchNorm2d(96, eps=1e-05, momentum=0.1, affine=True, track_running_stats=True)\n",
            "          )\n",
            "        )\n",
            "        (12): InvertedResidual(\n",
            "          (conv): Sequential(\n",
            "            (0): Conv2dNormActivation(\n",
            "              (0): Conv2d(96, 576, kernel_size=(1, 1), stride=(1, 1), bias=False)\n",
            "              (1): BatchNorm2d(576, eps=1e-05, momentum=0.1, affine=True, track_running_stats=True)\n",
            "              (2): ReLU6(inplace=True)\n",
            "            )\n",
            "            (1): Conv2dNormActivation(\n",
            "              (0): Conv2d(576, 576, kernel_size=(3, 3), stride=(1, 1), padding=(1, 1), groups=576, bias=False)\n",
            "              (1): BatchNorm2d(576, eps=1e-05, momentum=0.1, affine=True, track_running_stats=True)\n",
            "              (2): ReLU6(inplace=True)\n",
            "            )\n",
            "            (2): Conv2d(576, 96, kernel_size=(1, 1), stride=(1, 1), bias=False)\n",
            "            (3): BatchNorm2d(96, eps=1e-05, momentum=0.1, affine=True, track_running_stats=True)\n",
            "          )\n",
            "        )\n",
            "        (13): InvertedResidual(\n",
            "          (conv): Sequential(\n",
            "            (0): Conv2dNormActivation(\n",
            "              (0): Conv2d(96, 576, kernel_size=(1, 1), stride=(1, 1), bias=False)\n",
            "              (1): BatchNorm2d(576, eps=1e-05, momentum=0.1, affine=True, track_running_stats=True)\n",
            "              (2): ReLU6(inplace=True)\n",
            "            )\n",
            "            (1): Conv2dNormActivation(\n",
            "              (0): Conv2d(576, 576, kernel_size=(3, 3), stride=(1, 1), padding=(1, 1), groups=576, bias=False)\n",
            "              (1): BatchNorm2d(576, eps=1e-05, momentum=0.1, affine=True, track_running_stats=True)\n",
            "              (2): ReLU6(inplace=True)\n",
            "            )\n",
            "            (2): Conv2d(576, 96, kernel_size=(1, 1), stride=(1, 1), bias=False)\n",
            "            (3): BatchNorm2d(96, eps=1e-05, momentum=0.1, affine=True, track_running_stats=True)\n",
            "          )\n",
            "        )\n",
            "        (14): InvertedResidual(\n",
            "          (conv): Sequential(\n",
            "            (0): Conv2dNormActivation(\n",
            "              (0): Conv2d(96, 576, kernel_size=(1, 1), stride=(1, 1), bias=False)\n",
            "              (1): BatchNorm2d(576, eps=1e-05, momentum=0.1, affine=True, track_running_stats=True)\n",
            "              (2): ReLU6(inplace=True)\n",
            "            )\n",
            "            (1): Conv2dNormActivation(\n",
            "              (0): Conv2d(576, 576, kernel_size=(3, 3), stride=(2, 2), padding=(1, 1), groups=576, bias=False)\n",
            "              (1): BatchNorm2d(576, eps=1e-05, momentum=0.1, affine=True, track_running_stats=True)\n",
            "              (2): ReLU6(inplace=True)\n",
            "            )\n",
            "            (2): Conv2d(576, 160, kernel_size=(1, 1), stride=(1, 1), bias=False)\n",
            "            (3): BatchNorm2d(160, eps=1e-05, momentum=0.1, affine=True, track_running_stats=True)\n",
            "          )\n",
            "        )\n",
            "        (15): InvertedResidual(\n",
            "          (conv): Sequential(\n",
            "            (0): Conv2dNormActivation(\n",
            "              (0): Conv2d(160, 960, kernel_size=(1, 1), stride=(1, 1), bias=False)\n",
            "              (1): BatchNorm2d(960, eps=1e-05, momentum=0.1, affine=True, track_running_stats=True)\n",
            "              (2): ReLU6(inplace=True)\n",
            "            )\n",
            "            (1): Conv2dNormActivation(\n",
            "              (0): Conv2d(960, 960, kernel_size=(3, 3), stride=(1, 1), padding=(1, 1), groups=960, bias=False)\n",
            "              (1): BatchNorm2d(960, eps=1e-05, momentum=0.1, affine=True, track_running_stats=True)\n",
            "              (2): ReLU6(inplace=True)\n",
            "            )\n",
            "            (2): Conv2d(960, 160, kernel_size=(1, 1), stride=(1, 1), bias=False)\n",
            "            (3): BatchNorm2d(160, eps=1e-05, momentum=0.1, affine=True, track_running_stats=True)\n",
            "          )\n",
            "        )\n",
            "        (16): InvertedResidual(\n",
            "          (conv): Sequential(\n",
            "            (0): Conv2dNormActivation(\n",
            "              (0): Conv2d(160, 960, kernel_size=(1, 1), stride=(1, 1), bias=False)\n",
            "              (1): BatchNorm2d(960, eps=1e-05, momentum=0.1, affine=True, track_running_stats=True)\n",
            "              (2): ReLU6(inplace=True)\n",
            "            )\n",
            "            (1): Conv2dNormActivation(\n",
            "              (0): Conv2d(960, 960, kernel_size=(3, 3), stride=(1, 1), padding=(1, 1), groups=960, bias=False)\n",
            "              (1): BatchNorm2d(960, eps=1e-05, momentum=0.1, affine=True, track_running_stats=True)\n",
            "              (2): ReLU6(inplace=True)\n",
            "            )\n",
            "            (2): Conv2d(960, 160, kernel_size=(1, 1), stride=(1, 1), bias=False)\n",
            "            (3): BatchNorm2d(160, eps=1e-05, momentum=0.1, affine=True, track_running_stats=True)\n",
            "          )\n",
            "        )\n",
            "        (17): InvertedResidual(\n",
            "          (conv): Sequential(\n",
            "            (0): Conv2dNormActivation(\n",
            "              (0): Conv2d(160, 960, kernel_size=(1, 1), stride=(1, 1), bias=False)\n",
            "              (1): BatchNorm2d(960, eps=1e-05, momentum=0.1, affine=True, track_running_stats=True)\n",
            "              (2): ReLU6(inplace=True)\n",
            "            )\n",
            "            (1): Conv2dNormActivation(\n",
            "              (0): Conv2d(960, 960, kernel_size=(3, 3), stride=(1, 1), padding=(1, 1), groups=960, bias=False)\n",
            "              (1): BatchNorm2d(960, eps=1e-05, momentum=0.1, affine=True, track_running_stats=True)\n",
            "              (2): ReLU6(inplace=True)\n",
            "            )\n",
            "            (2): Conv2d(960, 320, kernel_size=(1, 1), stride=(1, 1), bias=False)\n",
            "            (3): BatchNorm2d(320, eps=1e-05, momentum=0.1, affine=True, track_running_stats=True)\n",
            "          )\n",
            "        )\n",
            "        (18): Conv2dNormActivation(\n",
            "          (0): Conv2d(320, 1280, kernel_size=(1, 1), stride=(1, 1), bias=False)\n",
            "          (1): BatchNorm2d(1280, eps=1e-05, momentum=0.1, affine=True, track_running_stats=True)\n",
            "          (2): ReLU6(inplace=True)\n",
            "        )\n",
            "      )\n",
            "      (classifier): Identity()\n",
            "    )\n",
            "    (projection): Sequential(\n",
            "      (0): Linear(in_features=1280, out_features=256, bias=True)\n",
            "      (1): BatchNorm1d(256, eps=1e-05, momentum=0.1, affine=True, track_running_stats=True)\n",
            "      (2): ReLU(inplace=True)\n",
            "      (3): Dropout(p=0.5, inplace=False)\n",
            "    )\n",
            "  )\n",
            "  (feature2hidden): Linear(in_features=256, out_features=512, bias=True)\n",
            "  (decoder): DecoderRNN(\n",
            "    (embedding): Embedding(2986, 512)\n",
            "    (rnn): LSTM(512, 512, batch_first=True)\n",
            "    (fc): Linear(in_features=512, out_features=2986, bias=True)\n",
            "    (dropout): Dropout(p=0.5, inplace=False)\n",
            "  )\n",
            ")\n"
          ]
        }
      ],
      "source": [
        "# Create caption model\n",
        "model = CaptionModel(\n",
        "    embed_size=config['embed_size'],\n",
        "    hidden_size=config['hidden_size'],\n",
        "    vocab_size=config['vocab_size'],\n",
…
